…
  "num_hidden_layers": 4,
  "pad_token_id": 0,
  "pooler_fc_size": 128,
  "pooler_num_attention_heads": 4,
  "pooler_num_fc_layers": 1,
  "pooler_size_per_head": 128,
  "pooler_type": "first_token_transform",
  "pos_weight": 40,
  "position_embedding_type": "absolute",
  "seq_fc_size": [
    128
  ],
  "seq_weight": null,
  "transformers_version": "4.26.0",
  "type_vocab_size": 2,
  "use_cache": true,
  "vocab_size": 19983
}

##################################################
Mode Architecture:
 SequenceAndStructureFusionNetwork(
  (seq_encoder): BertModel(
    (embeddings): BertEmbeddings(
      (word_embeddings): Embedding(19983, 128, padding_idx=0)
      (position_embeddings): Embedding(2048, 128)
      (LayerNorm): LayerNorm((128,), eps=1e-12, elementwise_affine=True)
      (dropout): Dropout(p=0.1, inplace=False)
    )
    (encoder): BertEncoder(
      (layer): ModuleList(
        (0): BertLayer(
          (attention): BertAttention(
            (self): BertSelfAttention(
              (query): Linear(in_features=128, out_features=128, bias=True)
              (key): Linear(in_features=128, out_features=128, bias=True)
              (value): Linear(in_features=128, out_features=128, bias=True)
              (dropout): Dropout(p=0.1, inplace=False)
            )
            (output): BertSelfOutput(
              (dense): Linear(in_features=128, out_features=128, bias=True)
              (LayerNorm): LayerNorm((128,), eps=1e-12, elementwise_affine=True)
              (dropout): Dropout(p=0.1, inplace=False)
            )
          )
          (intermediate): BertIntermediate(
            (dense): Linear(in_features=128, out_features=512, bias=True)
            (intermediate_act_fn): GELUActivation()
          )
          (output): BertOutput(
            (dense): Linear(in_features=512, out_features=128, bias=True)
            (LayerNorm): LayerNorm((128,), eps=1e-12, elementwise_affine=True)
            (dropout): Dropout(p=0.1, inplace=False)
          )
        )
        (1): BertLayer(
          (attention): BertAttention(
            (self): BertSelfAttention(
              (query): Linear(in_features=128, out_features=128, bias=True)
              (key): Linear(in_features=128, out_features=128, bias=True)
              (value): Linear(in_features=128, out_features=128, bias=True)
              (dropout): Dropout(p=0.1, inplace=False)
            )
            (output): BertSelfOutput(
              (dense): Linear(in_features=128, out_features=128, bias=True)
              (LayerNorm): LayerNorm((128,), eps=1e-12, elementwise_affine=True)
              (dropout): Dropout(p=0.1, inplace=False)
            )
          )
          (intermediate): BertIntermediate(
            (dense): Linear(in_features=128, out_features=512, bias=True)
            (intermediate_act_fn): GELUActivation()
          )
          (output): BertOutput(
            (dense): Linear(in_features=512, out_features=128, bias=True)
            (LayerNorm): LayerNorm((128,), eps=1e-12, elementwise_affine=True)
            (dropout): Dropout(p=0.1, inplace=False)
          )
        )
        (2): BertLayer(
          (attention): BertAttention(
            (self): BertSelfAttention(
              (query): Linear(in_features=128, out_features=128, bias=True)
              (key): Linear(in_features=128, out_features=128, bias=True)
              (value): Linear(in_features=128, out_features=128, bias=True)
              (dropout): Dropout(p=0.1, inplace=False)
            )
            (output): BertSelfOutput(
              (dense): Linear(in_features=128, out_features=128, bias=True)
              (LayerNorm): LayerNorm((128,), eps=1e-12, elementwise_affine=True)
              (dropout): Dropout(p=0.1, inplace=False)
            )
          )
          (intermediate): BertIntermediate(
            (dense): Linear(in_features=128, out_features=512, bias=True)
            (intermediate_act_fn): GELUActivation()
          )
          (output): BertOutput(
            (dense): Linear(in_features=512, out_features=128, bias=True)
            (LayerNorm): LayerNorm((128,), eps=1e-12, elementwise_affine=True)
            (dropout): Dropout(p=0.1, inplace=False)
          )
        )
        (3): BertLayer(
          (attention): BertAttention(
            (self): BertSelfAttention(
              (query): Linear(in_features=128, out_features=128, bias=True)
              (key): Linear(in_features=128, out_features=128, bias=True)
              (value): Linear(in_features=128, out_features=128, bias=True)
              (dropout): Dropout(p=0.1, inplace=False)
            )
            (output): BertSelfOutput(
              (dense): Linear(in_features=128, out_features=128, bias=True)
              (LayerNorm): LayerNorm((128,), eps=1e-12, elementwise_affine=True)
              (dropout): Dropout(p=0.1, inplace=False)
            )
          )
          (intermediate): BertIntermediate(
            (dense): Linear(in_features=128, out_features=512, bias=True)
            (intermediate_act_fn): GELUActivation()
          )
          (output): BertOutput(
            (dense): Linear(in_features=512, out_features=128, bias=True)
            (LayerNorm): LayerNorm((128,), eps=1e-12, elementwise_affine=True)
            (dropout): Dropout(p=0.1, inplace=False)
          )
        )
      )
    )
    (pooler): BertPooler(
      (dense): Linear(in_features=128, out_features=128, bias=True)
      (activation): Tanh()
    )
  )
  (seq_pooler): GlobalMaskValueAttentionPooling1D (128 -> 128)
  (seq_linear): ModuleList(
    (0): Linear(in_features=128, out_features=128, bias=True)
    (1): Tanh()
  )
  (embedding_pooler): GlobalMaskValueAttentionPooling1D (2560 -> 2560)
  (embedding_linear): ModuleList(
    (0): Linear(in_features=2560, out_features=128, bias=True)
    (1): Tanh()
  )
  (dropout): Dropout(p=0.1, inplace=False)
  (classifier): Linear(in_features=256, out_features=1, bias=True)
  (output): Sigmoid()
  (loss_fct): BCEWithLogitsLoss()
)
##################################################
{"adam_epsilon": 1e-08, "asl_gamma_neg": 4, "asl_gamma_pos": 1, "cache_dir": "", "cmap_thresh": 10.0, "cmap_type": null, "codes_file": "../subword/rdrp_40_extend/protein/binary_class/protein_codes_rdrp_20000.txt", "config_path": "../config/rdrp_40
…
